examples/mnist/checkpoints/checkpoint_15444.pth (torch, 847648 bytes, 25 tensors)

weight f4 [64, 1, 3, 3]
0	0x3d882ddc	0.06649372
1	0x3e59756d	0.212362
2	0x3e904570	0.28177977
3	0xbec7a8d2	-0.38995987
4	0xbd4e9788	-0.05043748
5	0x3e9572f1	0.29189256
6	0xbe2d127b	-0.16901581
7	0xbe942c66	-0.28940123
8	0x3e88910f	0.2667317
9	0xbd9b6b08	-0.07588774
10	0xbd93958a	-0.07206257
11	0x3bbd2f04	0.005773427
12	0x3d19ba8b	0.037531417
13	0x3ccc78ab	0.024959883
14	0xbd1bcac5	-0.038035173
15	0x3db90fb2	0.09036197
16	0x3d73580b	0.059410136
17	0xbd0ee0c1	-0.03488231
18	0x3dddc354	0.108282715
19	0xbdc11f20	-0.09429765
20	0xbe527344	-0.20551783
21	0xbde92931	-0.1138481
22	0xbe91b737	-0.28460094
23	0x3e02eb0e	0.12784979
24	0xbe8222cb	-0.2541717
25	0x3dadec60	0.084923506
26	0x3e3d2e1f	0.18474625
27	0xbd112c33	-0.035442542
28	0xbcb00c8f	-0.021490363
29	0xbc383e25	-0.011245285
30	0xbcfa1af6	-0.030530434
31	0xbc9a9e22	-0.018874232
32	0xbca53756	-0.020167988
33	0xb99495d3	-0.00028340388
34	0xbc70021f	-0.014648943
35	0xbd0e3185	-0.034715194
36	0x3bdff038	0.006834056
37	0x3bba2bde	0.005681499
38	0x3b868747	0.004105482
39	0x3baac0c1	0.0052109663
40	0x3b928895	0.0044718483
41	0x3b22a270	0.0024816059
42	0x3b8322ea	0.004001965
43	0x3b31553b	0.0027058858
44	0x39a74d66	0.00031910388
45	0x393c4f34	0.00017958583
46	0x39bea1e6	0.00036360248
47	0x39c9c9fd	0.000384882
48	0x39fd1d98	0.0004827797
49	0x3a27af76	0.000639669
50	0x39be2f35	0.00036274796
51	0x39df6f01	0.0004261658
52	0x39e09ede	0.00042842975
53	0x392c672a	0.0001644163
54	0xbd5210c6	-0.051285528
55	0x3db17bfd	0.08666227
56	0xbec74381	-0.3891869
57	0x3e17cb3c	0.14823622
58	0x3e9b68aa	0.3035329
59	0xbebdedc1	-0.37095454
60	0x3c21b315	0.009869357
61	0x3e65aba2	0.22428754
62	0x3d9fd8bf	0.07805013
63	0x3dfe1b52	0.12407555
64	0x3d3101c4	0.043214574
65	0xbdf1b88e	-0.11802779
66	0x3e43cedd	0.19121881
67	0xbc7fb0b7	-0.015606097
68	0xbda1b334	-0.078955084
69	0x3e073443	0.1320353
70	0xbcfcaaad	-0.030843103
71	0xbe53afd4	-0.20672542
72	0xbb5dc9a6	-0.0033842116
73	0xbc5bf0a7	-0.013424075
74	0xbc042ff4	-0.008068074
75	0x3b3a51d9	0.0028430133
76	0xbbcd3dc2	-0.0062634656
77	0xba562a58	-0.0008169762
78	0x3c1bb389	0.009503254
79	0x3a87fe4a	0.0010375467
80	0x3c0835d6	0.008313617
81	0x3d9725a5	0.07380227
82	0x3e690c4e	0.227586
83	0x3e38bca9	0.18040718
84	0xbe53f3dc	-0.20698494
85	0xbda05679	-0.07828993
86	0x3de6adfc	0.11263654
87	0xbe0d28aa	-0.13785043
88	0xbe4e4550	-0.20143628
89	0xbe6e4940	-0.2327013
90	0xbc4052ae	-0.011738462
91	0xbc3b9c89	-0.011450895
92	0xbc415fd5	-0.011802633
93	0xbc37a8c1	-0.011209668
94	0xbc32679e	-0.010888962
95	0xbc3628ea	-0.011118153
96	0xbc3dc5ea	-0.011582831
97	0xbc36a551	-0.011147813
98	0xbc38dc49	-0.011282989
99	0x3b1a7eaf	0.0023574044
100	0x3a99e78d	0.0011741981
101	0x3b852dc6	0.0040642945
102	0x3b3fd0e9	0.0029268807
103	0xbbaf5a8a	-0.0053513693
104	0xbb0bb512	-0.0021317643
105	0x3bcbf80b	0.0062246374
106	0xbac6e2ef	-0.0015173833
107	0xba70cfeb	-0.00091862556
108	0x3ab1bb7d	0.0013559904
109	0x3a6dd570	0.0009072637
110	0x3a41a767	0.00073873106
111	0x37992024	1.8253988e-05
112	0xb9802b93	-0.00024446528
113	0xba08ba8c	-0.0005215786
114	0xbac0a8de	-0.0014698764
115	0xbad1a6fd	-0.0015995201
116	0xbaea8c86	-0.0017894662
117	0xb9a6dd09	-0.0003182667
118	0xba850825	-0.0010149522
119	0xbabe433a	-0.0014515885
120	0xb9d2c2bd	-0.00040199413
121	0xba4a9a3e	-0.00077286724
122	0xba706abf	-0.000917118
123	0xb91b209e	-0.00014794103
124	0xb9a909d0	-0.00032241503
125	0xb9bfb68a	-0.0003656636
126	0x3bd3405a	0.0064468803
127	0x3ae9c9ea	0.0017836664
128	0xb9a77aa1	-0.00031944088
129	0x3bcbd090	0.006219931
130	0x3b987f71	0.004653864
131	0xbb406ff5	-0.0029363607
132	0x3b9d9999	0.00480957
133	0x3b2026a5	0.0024437096
134	0xbb826545	-0.0039793574
135	0x3c2b4670	0.010453805
136	0x3c3b07b5	0.011415412
137	0x3c23a80c	0.009988796
138	0x3c3f6ada	0.01168319
139	0x3c51d696	0.012807509
140	0x3c3aa3b3	0.011391568
141	0x3c2f8bf1	0.010714517
142	0x3c433d89	0.011916527
143	0x3c2e407e	0.010635493
144	0x3e6cee5a	0.23137799
145	0xbdffe957	-0.12495678
146	0xbe8832a9	-0.2660115
147	0x3e4ee376	0.20203957
148	0xbd7d8e72	-0.061903425
149	0xbe720f7d	-0.23638721
150	0x3eab36ee	0.33440346
151	0xbe482739	-0.19546212
152	0xbe390332	-0.18067625
153	0x3d5caa7f	0.053873535
154	0x3d78b1f1	0.060716573
155	0x3db3c7d5	0.08778349
156	0xbd800d39	-0.06252522
157	0x3ba3c89c	0.0049982797
158	0x3d918cd8	0.07106942
159	0xbe06eacb	-0.13175504
160	0xbde3962b	-0.11112627
161	0xbd733918	-0.05938062
162	0xb19f31f4	-4.633188e-09
163	0xafa9d3b6	-3.089135e-10
164	0xb46e6ab1	-2.2204291e-07
165	0xb1c99dc9	-5.867808e-09
166	0x311c4298	2.2738842e-09
167	0xb6babb07	-5.565005e-06
168	0xb1aba437	-4.995424e-09
169	0x33884947	6.3463226e-08
170	0xb76f5705	-1.4265771e-05
171	0xaa99af54	-2.7299918e-13
172	0xaa6db083	-2.1111068e-13
173	0xaa34f0cc	-1.6070755e-13
174	0x2ae3cb60	4.046442e-13
175	0x2a9922be	2.7202367e-13
176	0xaa14d74f	-1.3219741e-13
177	0x2a1fc623	1.419078e-13
178	0x2a9afd97	2.7531859e-13
179	0xa9a0009d	-7.105534e-14
180	0xbdc63575	-0.09678165
181	0xbd61a70c	-0.05509095
182	0xbcbb4b66	-0.022863101
183	0xbdfedc11	-0.12444318
184	0xbe4c45e3	-0.19948535
185	0xbdcf2da3	-0.101161264
186	0x3e85339f	0.26015946
187	0x3d993987	0.074816756
188	0x3d45ee57	0.048323
189	0xbcb20023	-0.02172858
190	0xbd0b4d3d	-0.034009207
191	0xbcc4e445	-0.024034629
192	0xbcce2c93	-0.025167739
193	0xbd0cabaa	-0.0343434
194	0xbcc7837d	-0.02435469
195	0xbcbf65c2	-0.023363952
196	0xbd0a5228	-0.033769757
197	0xbcac01e5	-0.020996997
198	0x3c1c9d7a	0.00955903
199	0x3c429571	0.01187645
200	0x3c3d036d	0.011536461
201	0x3c3a02ba	0.011353189
202	0x3c525b07	0.012839085
203	0x3c3e5e99	0.0116192335
204	0x3c392cf5	0.0113022225
205	0x3c424552	0.011857348
206	0x3c203309	0.009777793
207	0x3c35075c	0.011049118
208	0x3c4e81cf	0.012604191
209	0x3be5403f	0.006996184
210	0x3c435007	0.0119209355
211	0x3c5bc832	0.0134144295
212	0x3bc3edf0	0.005979292
213	0x3bc7ee01	0.0061013703
214	0x3c1a709f	0.009426265
215	0x3bf57d2b	0.007491728
216	0xb8c18408	-9.22755e-05
217	0xb89d60d7	-7.504381e-05
218	0xb8c896e9	-9.5648524e-05
219	0xb8ba8a30	-8.8949106e-05
220	0xb8b21a62	-8.4926156e-05
221	0xb8ecd4a9	-0.00011292968
222	0xb907cc41	-0.00012950694
223	0xb9018c03	-0.00012354557
224	0xb91dbf5c	-0.00015043974
225	0x3b29ec6c	0.0025928272
226	0x3b8921f7	0.004184957
227	0x3bae14d0	0.0053125396
228	0x3afdf6a2	0.001937587
229	0x3b71bd75	0.0036886607
230	0x3bd1d0ca	0.0064030634
231	0x3b07b5f4	0.0020707818
232	0x3b8bb129	0.0042630625
233	0x3bd28b86	0.006425324
234	0xb995e73a	-0.00028591772
235	0xb8b4d1b5	-8.62213e-05
236	0x39cb7a51	0.0003881031
237	0x37e76441	2.758403e-05
238	0xb79f2fd1	-1.8976543e-05
239	0x39b1405b	0.0003380802
240	0x38acfd58	8.248788e-05
241	0xb91e86e6	-0.00015118308
242	0x392fc929	0.00016764239
243	0x36cced2f	6.1072856e-06
244	0x36b67396	5.4374786e-06
245	0x34f4032b	4.5450847e-07
246	0x380f3433	3.414247e-05
247	0x382ae535	4.0744624e-05
248	0x36820c98	3.875768e-06
249	0x3825d750	3.953959e-05
250	0x380ae1d7	3.3112094e-05
251	0x365168c8	3.1204418e-06
252	0x362327ec	2.431213e-06
253	0x35534ac1	7.8712407e-07
254	0xb5825485	-9.710353e-07
255	0x38b13997	8.450745e-05

bias f4 [64]
0	0xbc83584b	-0.016033312
1	0xbcf7b67e	-0.030238386
2	0x3a88131f	0.0010381675
3	0xbd4a4026	-0.049377583
4	0x3a28cd55	0.0006439288
5	0xba28cd61	-0.0006439295
6	0x3e73c6ef	0.23806356
7	0x3e1aab1d	0.15104337
8	0x3b8f8e3d	0.00438097
9	0xbdb12c6f	-0.08651053
10	0xbd014496	-0.03155955
11	0x3d014499	0.03155956
12	0x3aee0ec4	0.001816236
13	0xbaee0ec6	-0.0018162362
14	0x3c06c764	0.008226249
15	0xbc06c768	-0.008226253
16	0xbdad7942	-0.08470394
17	0xbdddc4d7	-0.1082856
18	0x34e99afa	4.3512392e-07
19	0xb4e99af2	-4.351237e-07
20	0x3d01a7f2	0.031654306
21	0x3dfd683f	0.12373399
22	0xbad16276	-0.0015974778
23	0x3ad1625f	0.0015974751
24	0x3a134f89	0.00056194566
25	0xba134f83	-0.0005619453
26	0x380f289d	3.413168e-05
27	0xb80f2860	-3.413146e-05
28	0x3a743293	0.00093153975
29	0xba743297	-0.00093154
30	0xba266dd7	-0.0006348765
31	0x3a266dcb	0.0006348758
32	0xbc1b8a51	-0.009493426
33	0x3c1b8a4f	0.009493425
34	0xbddc8bda	-0.10768862
35	0xbd353e32	-0.044248767
36	0x31953165	4.3420862e-09
37	0xb1953160	-4.342084e-09
38	0x39d1a06a	0.00039983104
39	0xb9d1a079	-0.00039983148
40	0xbb807276	-0.003919895
41	0x3b807279	0.003919896
42	0x3a7a0d94	0.00095387665
43	0xba7a0e81	-0.00095389044
44	0x3c937ca6	0.018003773
45	0xbc65ae82	-0.014018657
46	0x3bf4e15f	0.0074731554
47	0xbbf4e159	-0.0074731526
48	0xbe27163a	-0.16317073
49	0xbe553a42	-0.20823005
50	0x3c0904cc	0.00836296
51	0xbc0904ca	-0.008362958
52	0x3d830df7	0.06399148
53	0xbd6d1b0f	-0.057887133
54	0x3c0cd561	0.008595795
55	0xbd818f95	-0.06326214
56	0xb780d2b0	-1.5356898e-05
57	0x3780d2b0	1.5356898e-05
58	0xb9685557	-0.00022157036
59	0x3968555d	0.00022157044
60	0x3e05bc00	0.13059998
61	0x3d440177	0.04785296
62	0x3ce3c75e	0.027805027
63	0xbce3c75e	-0.027805027

weight f4 [64]
0	0x3f1643c4	0.5869715
1	0x38622f4b	5.3926644e-05
2	0x3f15c098	0.58497
3	0x37827469	1.5551415e-05
4	0x39ef1f4d	0.00045608953
5	0xbacb207b	-0.0015497351
6	0x3f21886f	0.63098806
7	0x399afd90	0.00029562088
8	0xb54de6f5	-7.670454e-07
9	0x3f05b8e4	0.52235246
10	0x39d3f072	0.00040424202
11	0x3c603425	0.013684307
12	0xbbb0b1f0	-0.0053923056
13	0x3c5963e3	0.013268444
14	0x3b0cdc2d	0.002149354
15	0xba3dd4fb	-0.00072415144
16	0x3f266a2f	0.65005773
17	0x3981cc00	0.0002475679
18	0x391d28eb	0.0001498793
19	0x332ef4ee	4.0735294e-08
20	0x3e983975	0.29731336
21	0x34aa8e06	3.1768303e-07
22	0x2db1dbd2	2.022019e-11
23	0xbba21d57	-0.0049473452
24	0xbb5c5603	-0.0033620603
25	0xbb54e035	-0.003248227
26	0x3a9788bc	0.0011561136
27	0x3728b1cf	1.005498e-05
28	0xbb1f2f8e	-0.002428982
29	0xbacd3966	-0.0015657365
30	0xb9eff977	-0.00045771498
31	0x3c99a631	0.018756004
32	0x3c6cb405	0.014447217
33	0x307eb1ad	9.2657154e-10
34	0x3522babb	6.062143e-07
35	0x3f3111e6	0.69167936
36	0x387d3f95	6.0379116e-05
37	0x2f518f0f	1.9059264e-10
38	0xba43f317	-0.0007474883
39	0x3ae63cb2	0.0017565696
40	0x3b524b1d	0.0032088228
41	0x3adb7193	0.0016742222
42	0x38f3f1c6	0.00011632177
43	0xbbe50bf5	-0.006989951
44	0xbb1504f2	-0.0022738543
45	0x3e2e3417	0.17012058
46	0xbc375007	-0.011188514
47	0xbc0ea2e9	-0.008705833
48	0xbc1e6b2f	-0.009669109
49	0x3f0899e3	0.5335981
50	0xbafcdfa4	-0.0019292724
51	0xba9b6966	-0.0011856973
52	0x3ef1dd97	0.47239372
53	0xb8157ae8	-3.5638834e-05
54	0x3f0fded0	0.5619936
55	0x3a897f12	0.001049014
56	0x3a3d1124	0.0007212332
57	0xba695c63	-0.00089020113
58	0x389cc7c3	7.475868e-05
59	0xb8b7d146	-8.7651e-05
60	0xb9b76eb6	-0.00034986966
61	0x3f4d5fdb	0.8022439
62	0x3bc9e52c	0.0061613526
63	0xbc712ac2	-0.014719667

bias f4 [64]
0	0xbdb1f4ec	-0.08689293
1	0xbb466cb8	-0.0030277204
2	0xbd72450a	-0.059147872
3	0xba70e355	-0.00091891485
4	0xbba3b8e9	-0.0049964082
5	0xbba898be	-0.0051451614
6	0xbe36d4cb	-0.17854612
7	0xbb3e3aef	-0.0029026826
8	0xb662b247	-3.3780395e-06
9	0xbb73a32b	-0.0037176113
10	0xb909206f	-0.0001307742
11	0x3d120206	0.03564646
12	0xbc043a10	-0.008070484
13	0xbb99f82c	-0.004698774
14	0xbb92656c	-0.004467657
15	0xbb87d6af	-0.0041454653
16	0xbe898cda	-0.26865274
17	0xbad1652f	-0.001597559
18	0xbb274547	-0.002552347
19	0xb2572f07	-1.252534e-08
20	0xbd9c63a6	-0.07636194
21	0xb4e92c65	-4.3431933e-07
22	0xbb873a0f	-0.004126794
23	0x3c4f0388	0.012635119
24	0xbb383288	-0.002810629
25	0xbb5de992	-0.0033861143
26	0xbaac548a	-0.0013147753
27	0xb9c21e13	-0.0003702497
28	0xbaba880f	-0.0014231222
29	0xbbb9b6c1	-0.005667538
30	0xbc1ee662	-0.009698482
31	0x3cccaec1	0.024985673
32	0x3c131d56	0.008979162
33	0xb4238337	-1.5228294e-07
34	0xb4587189	-2.0157871e-07
35	0xbdb304d1	-0.08741153
36	0xb92ea61d	-0.00016655815
37	0xb3a79bba	-7.80487e-08
38	0xbab1bb7d	-0.0013559904
39	0xbc546cb4	-0.01296537
40	0xbb2c4a53	-0.0026289418
41	0x3b8d1b28	0.004306216
42	0xbb91cd3f	-0.004449516
43	0xbc90fe09	-0.017699258
44	0xba61e412	-0.0008617054
45	0xbed8ddf8	-0.4235685
46	0x3c30cc53	0.010790902
47	0xbb87ea2f	-0.00414779
48	0x3bce1045	0.0062885606
49	0xbd34b162	-0.044114478
50	0x3b744356	0.003727158
51	0xbbeb580b	-0.0071821264
52	0x3c89408b	0.01675441
53	0xb95f204c	-0.00021278969
54	0xbdddc443	-0.108284496
55	0xbb790223	-0.0037995658
56	0xba3ab220	-0.00071218796
57	0xb9e3de14	-0.00043462275
58	0xb8a31913	-7.777116e-05
59	0xbaa78e84	-0.0012783562
60	0xbab450b6	-0.0013756964
61	0x3dbf569c	0.09342691
62	0xbba00eac	-0.0048845615
63	0x3c3a7e2d	0.011382622

weight f4 [64, 64, 4, 4]
0	0x3c9d5829	0.019207077
1	0x3d2f1fba	0.042754866
2	0xbd04db50	-0.032435715
3	0xbe1149dd	-0.14188333
4	0x3ccc28aa	0.024921734
5	0xba5742c4	-0.0008211548
6	0xbde573ee	-0.112037525
7	0xbe263643	-0.16231637
8	0x3d0a19a7	0.03371587
9	0xbc2c9d20	-0.010535508
10	0xbd9395dc	-0.07206318
11	0xbdb9b614	-0.09067932
12	0x3d49cd91	0.04926831
13	0xbc41d365	-0.011830186
14	0xbdb73cea	-0.08947165
15	0xbd4c1683	-0.049826156
16	0xa2943e6f	-4.0181585e-18
17	0xa1b7494a	-1.2419962e-18
18	0x1fba6937	7.894813e-20
19	0xa0916dd0	-2.4636623e-19
20	0xa207666c	-1.8350133e-18
21	0xa1c7aa25	-1.3529801e-18
22	0xa28e81c0	-3.8626555e-18
23	0x22c34bbd	5.2935047e-18
24	0x22d32b72	5.7237664e-18
25	0x221f6b92	2.1605465e-18
26	0xa1dd107b	-1.4979905e-18
27	0xa17096d0	-8.151476e-19
28	0xa2b70ea3	-4.9617747e-18
29	0x2357c650	1.1697168e-17
30	0xa292dd29	-3.980754e-18
31	0x22e0ecb8	6.0965957e-18
32	0xbcfacea9	-0.030616121
33	0x3c29d830	0.0103664845
34	0xbc460c4b	-0.012087892
35	0x3c6b5058	0.014362417
36	0x3cae3a1d	0.021267945
37	0x3be3839e	0.00694318
38	0x3cfe435d	0.03103798
39	0x3d10d860	0.0353626
40	0xbc90b5cc	-0.017664813
41	0x3c8ddb6d	0.017316544
42	0x3c8560ac	0.016281448
43	0x3d30c154	0.043153122
44	0x3c100d73	0.008792269
45	0x3cb1e873	0.021717286
46	0x3ccd9570	0.025095671
47	0x3cb46986	0.022022974
48	0x2bb35733	1.2742918e-12
49	0x2aba9a39	3.314725e-13
50	0x2ba80cc0	1.1940657e-12
51	0xab971702	-1.0735581e-12
52	0x2bad2f96	1.2305597e-12
53	0x2a8ea064	2.533556e-13
54	0x2bd5b6de	1.5185316e-12
55	0xacabb0e0	-4.8797494e-12
56	0x2b62a74b	8.0523495e-13
57	0x2bc6a9a5	1.4115832e-12
58	0x2be3f436	1.6197102e-12
59	0xacc3d638	-5.5660164e-12
60	0xadace690	-1.9656526e-11
61	0xad6e7d21	-1.3556518e-11
62	0xadbf8416	-2.1772844e-11
63	0xad035fc6	-7.467754e-12
64	0x381ade83	3.692369e-05
65	0x38314eea	4.2273583e-05
66	0x38830511	6.2475105e-05
67	0x385beb43	5.2432773e-05
68	0x38831fca	6.252488e-05
69	0x365c8386	3.2859111e-06
70	0x3721545f	9.615992e-06
71	0x37525efb	1.253909e-05
72	0x3897e4b9	7.242844e-05
73	0xb5c92f90	-1.498951e-06
74	0x35bb58da	1.3958445e-06
75	0x36d4e3af	6.344598e-06
76	0x37f6535c	2.9364302e-05
77	0x373c6bb4	1.123075e-05
78	0x378068bd	1.5307562e-05
79	0x380c51a1	3.3454624e-05
80	0x1b4f5d1f	1.7152728e-22
81	0x18e7ccb9	5.9918818e-24
82	0x17524b7e	6.7949944e-25
83	0x18c84254	5.1765763e-24
84	0x9b0a4da5	-1.1440181e-22
85	0x94bc8bae	-1.9038243e-26
86	0x16066390	1.085585e-25
87	0x95107b08	-2.9177623e-26
88	0x17189d2c	4.931223e-25
89	0x1585c597	5.4030014e-26
90	0x141d42d0	7.939651e-27
91	0x1400771e	6.48584e-27
92	0x16fd6cdc	4.0943054e-25
93	0x9329d6e2	-2.1436744e-27
94	0x941972b7	-7.7471495e-27
95	0x9581ac03	-5.237407e-26
96	0x3c6f7871	0.014616118
97	0xbd87a6f5	-0.066236414
98	0xbbcbcd04	-0.006219508
99	0xbd44ae51	-0.048017804
100	0x3d170d7c	0.036878094
101	0xbd1b6dbc	-0.037946448
102	0xbcdccc09	-0.02695276
103	0xbcabb7b4	-0.02096162
104	0xbd868867	-0.065689854
105	0xbd9953b6	-0.0748667
106	0xbd421abc	-0.047388777
107	0xbd248df0	-0.040174425
108	0xbda7f080	-0.082001686
109	0xbd90f6ab	-0.07078298
110	0xbcfe14c9	-0.03101577
111	0xbd335d54	-0.043790177
112	0x23ec99b4	2.5652267e-17
113	0xa35e28a1	-1.2043248e-17
114	0xa152a439	-7.1368114e-19
115	0x9fcca793	-8.667459e-20
116	0xa22e9cbe	-2.3664376e-18
117	0xa22ca5d7	-2.3398142e-18
118	0x21ad103d	1.1727234e-18
119	0x212d34e0	5.868466e-19
120	0x2228076d	2.2772177e-18
121	0xa22fab20	-2.3807515e-18
122	0x20c92e66	3.4081428e-19
123	0x225d12f2	2.9961115e-18
124	0x23568173	1.1628375e-17
125	0xa2bad94d	-5.0645477e-18
126	0x2337b2e5	9.958332e-18
127	0x247e8cc4	5.5196703e-17
128	0xb54a5bca	-7.5384435e-07
129	0xb4b796b5	-3.419606e-07
130	0xb49e22b5	-2.9455046e-07
131	0xb590d44b	-1.0790621e-06
132	0xb30bc60b	-3.254358e-08
133	0xb2835e2d	-1.5293233e-08
134	0xb32cb81f	-4.0214328e-08
135	0xb4a3ec2f	-3.0532962e-07
136	0x33c02be0	8.9486775e-08
137	0x330e2476	3.3095112e-08
138	0x31b2b844	5.2014304e-09
139	0xb3d0df1b	-9.7263374e-08
140	0xb4a9df74	-3.1641287e-07
141	0xb3302075	-4.1007713e-08
142	0xb27707a7	-1.4379032e-08
143	0xb503fb77	-4.916723e-07
144	0x3d24ba7a	0.0402169
145	0x3d83c87c	0.06434724
146	0x3d816e80	0.06319904
147	0x3c90415c	0.01760929
148	0x3d1a16e3	0.037619483
149	0x3d15d621	0.036581162
150	0x3b278cb0	0.0025566034
151	0xbd398558	-0.045293182
152	0x3d748fac	0.05970733
153	0x3d6802a0	0.05664313
154	0x3cbfdd57	0.023420973
155	0xbd19d8b3	-0.037560176
156	0x3da51b55	0.08061854
157	0x3d4ff35e	0.050769202
158	0x3bb333c4	0.0054688174
159	0xbd06644f	-0.032810505
160	0x3815f6ec	3.5754332e-05
161	0x37ed3ccf	2.8280918e-05
162	0x378aa4ff	1.6527714e-05
163	0x36a1079b	4.7990593e-06
164	0x37ba0964	2.21773e-05
165	0x378febb9	1.7156695e-05
166	0x36534b37	3.148523e-06
167	0x368c5e44	4.183299e-06
168	0x371f34fb	9.489474e-06
169	0x36d1ae37	6.2489667e-06
170	0x36eb687e	7.0157103e-06
171	0x35c2c2e5	1.4510848e-06
172	0x36094033	2.045196e-06
173	0x35ebaa45	1.7558419e-06
174	0xb69a287a	-4.5942697e-06
175	0xb72320f4	-9.72323e-06
176	0x3b00d2c4	0.0019656876
177	0x3a8546b2	0.0010168164
178	0x3a705290	0.0009167576
179	0xba138ae5	-0.0005628302
180	0x3b49e8e8	0.003080899
181	0x3b178a23	0.0023123107
182	0x3b304c52	0.002690096
183	0x39c1166a	0.00036828528
184	0x3b61ca22	0.0034452756
185	0x3b27f614	0.0025628852
186	0x3b47dd0e	0.003049675
187	0x3980e381	0.00024583566
188	0x3bb4971d	0.005511178
189	0x3ba4074f	0.005005754
190	0x3bb2da8c	0.0054581817
191	0xb959ac18	-0.00020758843
192	0xac3f1443	-2.715398e-12
193	0xad1074a3	-8.211351e-12
194	0x2b0bcebe	4.966963e-13
195	0xae2244b5	-3.689556e-11
196	0x2c6321f7	3.2277494e-12
197	0xad6d3488	-1.34835546e-11
198	0xad5cc717	-1.2549759e-11
199	0xad92a90b	-1.6673348e-11
200	0x2d6b2d00	1.33681954e-11
201	0xadb75e4d	-2.084657e-11
202	0xad80f0cb	-1.4658849e-11
203	0xacbbcaf0	-5.3373903e-12
204	0xae1ff61a	-3.6370996e-11
205	0x2e845536	6.0178015e-11
206	0x2e5faf74	5.0860163e-11
207	0x2d77c6f8	1.4084504e-11
208	0x2d76bf67	1.4025981e-11
209	0x2d3eaa36	1.0838044e-11
210	0x2d24f5a6	9.376866e-12
211	0xa9bf1130	-8.4850855e-14
212	0x2d94c23a	1.6911906e-11
213	0x2d436c92	1.1108574e-11
214	0x2d08d954	7.7789615e-12
215	0x2c12b440	2.0847907e-12
216	0x2dd83266	2.4578738e-11
217	0x2d67f166	1.3184431e-11
218	0x2d09e49a	7.838308e-12
219	0x2d3e46a1	1.0815932e-11
220	0x2ca867cd	4.7863714e-12
221	0x2d820c58	1.478477e-11
222	0x2d20be9c	9.137271e-12
223	0xab1396c3	-5.2434115e-13
224	0xba0d7a35	-0.00053969334
225	0xb97f724a	-0.00024361271
226	0xb851336f	-4.9877384e-05
227	0xb828e736	-4.0269653e-05
228	0xb9a190fb	-0.00030816332
229	0xb89215ed	-6.9659065e-05
230	0x35192b39	5.705984e-07
231	0xb712d4ec	-8.751853e-06
232	0xb895fde9	-7.152168e-05
233	0x36890bf1	4.0843083e-06
234	0x354a1c85	7.5292365e-07
235	0xb571f534	-9.0136314e-07
236	0xb62d7141	-2.5844931e-06
237	0x346d4a5b	2.2099395e-07
238	0xb39dc900	-7.347444e-08
239	0xb488bdbe	-2.547003e-07
240	0xa12466bc	-5.570133e-19
241	0x23cea7b2	2.2405586e-17
242	0xa206ac47	-1.825159e-18
243	0xa1023096	-4.4110016e-19
244	0x20deaf9c	3.7724471e-19
245	0xa245c7c1	-2.6804227e-18
246	0x9f85e587	-5.670741e-20
247	0x9eb26ec4	-1.8892295e-20
248	0x1e3e36b3	1.0069828e-20
249	0x1da10c04	4.262877e-21
250	0x1e92838f	1.5512763e-20
251	0x9dac9db5	-4.5691086e-21
252	0x1d6c4648	3.1270674e-21
253	0x1c874a6a	8.952786e-22
254	0x1e4efd0e	1.095788e-20
255	0x9e3d92c0	-1.0035924e-20

bias f4 [64]
0	0xbc9a1dbb	-0.018813005
1	0x3c9843db	0.018587044
2	0x2417a31c	3.2881065e-17
3	0xa417a307	-3.2880995e-17
4	0xba07547a	-0.00051624293
5	0x3a07547d	0.0005162431
6	0x3ac3234d	0.001488784
7	0xbac3234d	-0.001488784
8	0x3ca876f7	0.02056454
9	0xbca876f8	-0.020564541
10	0x36ba990a	5.561048e-06
11	0xb6ba990c	-5.561049e-06
12	0x3c3c2eb5	0.011485745
13	0xbc3c2eab	-0.011485736
14	0x17af7546	1.1338714e-24
15	0x97af7569	-1.1338748e-24
16	0xbabe3fcc	-0.0014514863
17	0x3b161358	0.0022899713
18	0x3d3a47ae	0.045478515
19	0xbd44ff16	-0.04809483
20	0xb07dbdc9	-9.2310565e-10
21	0x307dbde2	9.2310704e-10
22	0x3e20042d	0.15626593
23	0xbe205cf6	-0.15660462
24	0xbdb2993a	-0.08720632
25	0x3dacf94d	0.08445988
26	0xbbb49bba	-0.005511728
27	0x3bb49bbc	0.005511729
28	0xbb2c6183	-0.0026303239
29	0x3b2c617e	0.0026303227
30	0xbcd63b58	-0.026151344
31	0x3ccefca5	0.025266955
32	0x3c07bfe9	0.008285501
33	0xbc07bfe7	-0.008285499
34	0xb5946d23	-1.1058622e-06
35	0x35946d2c	1.1058632e-06
36	0xbb90c1da	-0.00441764
37	0x3b90c1da	0.00441764
38	0x3b3aefe4	0.0028524334
39	0xbb3aefe8	-0.0028524343
40	0x3bfa62d2	0.007641175
41	0xbbfa62cd	-0.0076411725
42	0x3b02e84e	0.001997489
43	0xbb02e855	-0.0019974906
44	0x3c44dc59	0.012015426
45	0xbc44dc5a	-0.0120154265
46	0x3a8e2d75	0.0010847287
47	0xba8e2d8b	-0.0010847313
48	0xbcc0b09e	-0.023521718
49	0x3cbf0779	0.023318993
50	0x132ffde6	2.2213287e-27
51	0x932ffdf6	-2.2213318e-27
52	0xbd8acb7c	-0.06777093
53	0x3d87fac3	0.06639626
54	0x3b82b016	0.0039882762
55	0xbb82b019	-0.0039882776
56	0xbb87a21e	-0.004139199
57	0x3bb5b704	0.005545499
58	0xbc7742fe	-0.015091656
59	0x3c774304	0.015091661
60	0xbc224571	-0.009904251
61	0x3c22456e	0.009904249
62	0x2f17bf21	1.3801273e-10
63	0xaf17bcb8	-1.3800416e-10

weight f4 [64]
0	0x3ea77ed8	0.32713962
1	0xb92db40d	-0.0001656564
2	0xbc1ae95a	-0.009455049
3	0x33927287	6.819487e-08
4	0x3b0beb85	0.0021350097
5	0xbc5e8a22	-0.013582738
6	0xbc5ae5b5	-0.0133604305
7	0x3cbccdb7	0.023047311
8	0xbbc0649a	-0.0058713676
9	0x3b0e5727	0.0021719427
10	0x9f58570f	-4.5811792e-20
11	0x35b3ee5a	1.3405909e-06
12	0x3b971689	0.0046108407
13	0xbc6ffc6b	-0.0146475835
14	0xba73dbb1	-0.0009302451
15	0xb913887d	-0.00014069858
16	0x3a9d758e	0.0012013183
17	0x3f023d0f	0.5087442
18	0xb83a14cc	-4.4365224e-05
19	0x3effaef2	0.4993816
20	0xb16edc86	-3.4758911e-09
21	0x33da2d8f	1.0159703e-07
22	0x3ee06854	0.43829596
23	0x3ed02050	0.40649652
24	0x3f08796f	0.5331029
25	0x3e970c83	0.29501733
26	0xbc3c8825	-0.011507069
27	0x3c444270	0.011978731
28	0x3a327f75	0.0006809154
29	0x3c98f43a	0.018671144
30	0x3efc0e3d	0.49229613
31	0x3ead5cfc	0.33860004
32	0xbcc1bbaa	-0.023649056
33	0x3c2b766d	0.010465247
34	0x3b222b4d	0.0024745048
35	0xbb475183	-0.0030413575
36	0xbad066a4	-0.001589973
37	0x39a26d92	0.00030980684
38	0xbb280685	-0.0025638652
39	0x341b11b7	1.4441945e-07
40	0x3aa8ff37	0.0012893443
41	0x3c2dc1a4	0.01060525
42	0x3c23a920	0.009989053
43	0xbc074aa5	-0.008257543
44	0xba78b273	-0.000948704
45	0x3c3e165c	0.011602011
46	0x3b08a453	0.0020849898
47	0x36e761d3	6.8957247e-06
48	0x3ed21ccd	0.41037598
49	0xb4f24f59	-4.5133746e-07
50	0x39899e72	0.00026248727
51	0x3906754e	0.00012822935
52	0x3eb1f714	0.34758818
53	0x3ebdc5db	0.37065014
54	0xbbe3d663	-0.006953047
55	0xba8ccc2e	-0.0010742003
56	0x3ebe8d3e	0.37217134
57	0x3edc58f2	0.4303661
58	0xbb292724	-0.0025810683
59	0xbc587e25	-0.013213669
60	0x3b002618	0.0019553956
61	0x3a3d898b	0.00072302733
62	0xbb82f726	-0.0039967475
63	0x346e2d2f	2.2181915e-07

bias f4 [64]
0	0xbe061742	-0.1309481
1	0xbadafd60	-0.0016707592
2	0xbb652eec	-0.0034970595
3	0xb88430ef	-6.303365e-05
4	0xbc04e508	-0.008111246
5	0xbc00498f	-0.007830038
6	0xbae92a33	-0.0017789066
7	0x378386d1	1.5679196e-05
8	0xbb7d8502	-0.0038684015
9	0x3bbf1c07	0.0058321985
10	0xb89ce013	-7.480397e-05
11	0xba7bb72d	-0.00096021855
12	0x3bbd2f00	0.005773425
13	0x3c067715	0.008207102
14	0xbadcf280	-0.0016856939
15	0xb443470f	-1.8186641e-07
16	0xbad52a69	-0.001626325
17	0xbdbb45d5	-0.09144179
18	0xbaf102bc	-0.0018387656
19	0xbea69bf3	-0.32540855
20	0xb332dd7f	-4.1645304e-08
21	0xb872a1fc	-5.7848156e-05
22	0xbea6a9ca	-0.32551414
23	0xbd6e0e6b	-0.05811922
24	0xbd137084	-0.035995975
25	0xbea73017	-0.32653877
26	0xbbd99154	-0.006639639
27	0xbb387392	-0.0028145057
28	0xbc73e452	-0.014885979
29	0x3cc75eb9	0.02433716
30	0xbc87a5a7	-0.016558481
31	0xbf059b23	-0.52189845
32	0x3bbb7496	0.0057206852
33	0xbc0fa1c1	-0.0087665925
34	0xbc0bd201	-0.008533956
35	0xbcbfa912	-0.023396049
36	0xbc096c7e	-0.008387683
37	0xbcb2416c	-0.021759711
38	0x3bff441d	0.007790102
39	0xb9384d4a	-0.000175764
40	0xbc06fff2	-0.008239733
41	0xbc8bd4fe	-0.017069336
42	0x3c390686	0.011293059
43	0xbc1b525a	-0.009480083
44	0xbb28e85a	-0.0025773258
45	0xbb52874f	-0.0032124107
46	0xbc3672f7	-0.011135808
47	0xb735aa73	-1.08281265e-05
48	0xbe4e1542	-0.20125297
49	0xb84419a0	-4.6753907e-05
50	0xb9942a53	-0.00028260294
51	0xb5e7951d	-1.7254239e-06
52	0xbc64c891	-0.013963834
53	0xbec3cc93	-0.38242015
54	0xba3ba499	-0.0007158011
55	0xbc2fa1a8	-0.010719694
56	0xbd92ed7b	-0.07174202
57	0xbe636d88	-0.22209752
58	0x3a40d602	0.00073561084
59	0x3c41a7f1	0.0118198255
60	0xba3e3d3c	-0.00072570494
61	0x3bd72d86	0.006566706
62	0xbacefb99	-0.0015791535
63	0xb7aeccd7	-2.0837802e-05

weight f4 [64, 64, 4, 4]
0	0xba9e1057	-0.0012059313
1	0xbb2cc03a	-0.0026359693
2	0xbb10c697	-0.0022091025
3	0x39d591e5	0.00040735226
4	0x3b43e0aa	0.002988855
5	0x3c3b00de	0.011413781
6	0x3b2070a4	0.0024481202
7	0x3c5fc50b	0.013657819
8	0xbb6e72cc	-0.0036384342
9	0x3b98c3be	0.004662006
10	0x3b116d7e	0.0022190507
11	0x3b7e0ac0	0.0038763732
12	0xbb1fafad	-0.0024366186
13	0xb937b0a2	-0.00017518041
14	0x3ac24c96	0.001482385
15	0x3bda02ca	0.0066531645
16	0x87b888f4	-2.7765737e-34
17	0x88f67e31	-1.4835254e-33
18	0x0866ee99	6.9493578e-34
19	0x09c877e3	4.826099e-33
20	0x068e3365	5.348998e-35
21	0x0aa4b27b	1.5859762e-32
22	0x0624f5cb	3.1025552e-35
23	0x8b599f59	-4.191256e-32
24	0x0856ab9d	6.4600013e-34
25	0x8a491622	-9.681961e-33
26	0x868e0b18	-5.3430764e-35
27	0x096344ba	2.7356446e-33
28	0x8581eafd	-1.2217423e-35
29	0x8b20e2b9	-3.0985446e-32
30	0x86b7f0ed	-6.919096e-35
31	0x8a96eeae	-1.4534256e-32
32	0x9bca590b	-3.347564e-22
33	0x9b3ea4fc	-1.5769741e-22
34	0x9c7bc964	-8.3309225e-22
35	0x9c9287a5	-9.696533e-22
36	0x9c877954	-8.964913e-22
37	0x9c4a5297	-6.694294e-22
38	0x1c2c27b1	5.6961326e-22
39	0x1b93923a	2.4413607e-22
40	0x1b60f47e	1.8607845e-22
41	0x1c1f7c80	5.27696e-22
42	0x1c0aced1	4.5927674e-22
43	0x1c76674c	8.152808e-22
44	0x1c9b64cd	1.0283096e-21
45	0x1cc9197e	1.3307654e-21
46	0x1c7cdb72	8.366343e-22
47	0x1c53cceb	7.0078894e-22
48	0x0440d86e	2.2668871e-36
49	0x824057b4	-1.4131102e-37
50	0x05e2fe55	2.1346365e-35
51	0x82d8e238	-3.186819e-37
52	0x849b9113	-3.6573555e-36
53	0x847ea3db	-2.9932795e-36
54	0x058664d4	1.2638338e-35
55	0x82f2af71	-3.5659403e-37
56	0x83e66302	-1.3540916e-36
57	0x849d5df9	-3.6996823e-36
58	0x86397c7f	-3.4886098e-35
59	0x84d2e489	-4.958064e-36
60	0x8500b38d	-6.051509e-36
61	0x83e17d3a	-1.3253062e-36
62	0x864e3b33	-3.8787787e-35
63	0x04ad9fc6	4.0818833e-36
64	0xa4122ad1	-3.169497e-17
65	0xa669d490	-8.112619e-16
66	0x25fe4b1f	4.411288e-16
67	0x269012d5	9.997112e-16
68	0x24aba823	7.444426e-17
69	0x2524e475	1.4302137e-16
70	0xa503e0ae	-1.1438563e-16
71	0x2610a82b	5.0187946e-16
72	0x2655a7dd	7.4126717e-16
73	0x269e8c37	1.1001458e-15
74	0xa6aa75d4	-1.1828057e-15
75	0xa5857fc1	-2.3158392e-16
76	0xa4338199	-3.892421e-17
77	0xa502cff3	-1.1346159e-16
78	0x234e997c	1.1199784e-17
79	0xa3fe0c4d	-2.7543945e-17
80	0xa9d57e53	-9.481014e-14
81	0xaa8fe0b5	-2.5557825e-13
82	0x29acfeb0	7.6825156e-14
83	0xa9f171f4	-1.0722318e-13
84	0x2b187a08	5.41706e-13
85	0x2bb4ea4a	1.2854798e-12
86	0xaca135aa	-4.581853e-12
87	0x2b93b04d	1.0493912e-12
88	0x2b1ab751	5.4966193e-13
89	0x2d70e9bd	1.3694321e-11
90	0x2cc7ac8f	5.675078e-12
91	0xac57f22e	-3.0687774e-12
92	0xaaade540	-3.0890047e-13
93	0xac8c6354	-3.990067e-12
94	0xabfc568c	-1.7929699e-12
95	0xac6cd1a2	-3.3653987e-12
96	0x270af265	1.928275e-15
97	0x27ecc837	6.572023e-15
98	0x269bb2a3	1.0803705e-15
99	0xa7c9167a	-5.5813076e-15
100	0xa71777fb	-2.1020501e-15
101	0x286a944a	1.30217645e-14
102	0x278a576d	3.839748e-15
103	0xa7c05894	-5.338674e-15
104	0xa6af1539	-1.2148817e-15
105	0x2718bf21	2.1197849e-15
106	0x2748f2b8	2.7887154e-15
107	0xa78a15ff	-3.8326543e-15
108	0x27052a3f	1.848036e-15
109	0x25eb0a19	4.0772844e-16
110	0xa6199c02	-5.329397e-16
111	0x27cccbc8	5.6842314e-15
112	0xb1b6f47d	-5.3246922e-09
113	0xb432f009	-1.6664866e-07
114	0x320df2f0	8.262518e-09
115	0xb53279f7	-6.648765e-07
116	0xb48455fc	-2.4649478e-07
117	0xb593f7c5	-1.1024464e-06
118	0xb47291f1	-2.25911e-07
119	0xb5b9a31f	-1.3831049e-06
120	0x3417f116	1.4150677e-07
121	0xb4384491	-1.716128e-07
122	0x341f60cb	1.4843242e-07
123	0xb59aacb8	-1.1524162e-06
124	0xb658254b	-3.2208216e-06
125	0x342310ce	1.5186671e-07
126	0xb585eabf	-9.977592e-07
127	0x359affcb	1.154834e-06
128	0x9d6608e0	-3.0444835e-21
129	0x9f27b3b7	-3.5512282e-20
130	0x9c166774	-4.9764547e-22
131	0x1f985004	6.450688e-20
132	0x1cea3920	1.5499588e-21
133	0x26bb2731	1.2986354e-15
134	0x9fb38b57	-7.603997e-20
135	0x2685b306	9.277253e-16
136	0x1d32a87b	2.3645206e-21
137	0x9f50f8f4	-4.4251642e-20
138	0x9d66b41b	-3.0533359e-21
139	0x1efc6200	2.672207e-20
140	0x1f3ce813	4.0002516e-20
141	0xa677b00f	-8.5933944e-16
142	0x1e3797e6	9.719351e-21
143	0xa50bfa44	-1.2141121e-16
144	0x3a2f9893	0.00066984555
145	0x3a40ce9a	0.0007355005
146	0x39b87440	0.00035181828
147	0x39b77f8a	0.00034999504
148	0x3a33798f	0.0006846422
149	0x3a3de08d	0.00072432385
150	0x3a19af7d	0.00058626366
151	0x39ff922d	0.000487463
152	0x3a2e1e51	0.0006642091
153	0x3a55e16f	0.00081588974
154	0x3a549eaa	0.0008110801
155	0x3a4a8aab	0.00077263516
156	0x3a6688c9	0.0008794186
157	0x3a411e76	0.0007366905
158	0x3a2b41e2	0.00065329496
159	0x39832a3c	0.00025017734
160	0xaf1d185f	-1.4287725e-10
161	0x2f817159	2.3545502e-10
162	0xaf5234af	-1.9118106e-10
163	0xaf1e2d6f	-1.4386158e-10
164	0x2f8fe28c	2.617252e-10
165	0xaf963914	-2.7325398e-10
166	0x2e683914	5.2801388e-11
167	0x2f5383a9	1.9237113e-10
168	0x2f92fafa	2.6735575e-10
169	0xaf83ed2a	-2.3997276e-10
170	0x2fa7d2d4	3.0526925e-10
171	0x2f511c75	1.9018549e-10
172	0x2f93596a	2.6802677e-10
173	0xaf9b6c99	-2.82715e-10
174	0x2db95857	2.1071296e-11
175	0x2f55be78	1.9439905e-10
176	0x386a046f	5.5794077e-05
177	0xb891167f	-6.918329e-05
178	0xb88e4551	-6.783999e-05
179	0xb88caf4d	-6.7083725e-05
180	0xb53b73d8	-6.9831503e-07
181	0xb8ee402f	-0.000113606795
182	0xb8eee478	-0.0001139128
183	0xb8e131a0	-0.000107380794
184	0x3371e2bf	5.631841e-08
185	0xb8e6831c	-0.00010991676
186	0xb8eae620	-0.000112008536
187	0xb8e9aae6	-0.00011142138
188	0x32acb879	2.0107324e-08
189	0xb8eab0e8	-0.00011190941
190	0xb8f1b6ec	-0.000115258474
191	0xb8e59103	-0.000109465815
192	0x3b86c0b4	0.0041123275
193	0x3b717a0e	0.0036846432
194	0x3b763779	0.0037569685
195	0x3b5ffaae	0.0034176516
196	0x3b4f9e6e	0.0031680125
197	0x3b4b7d46	0.003105001
198	0x3b53198f	0.003221128
199	0x3b40cc41	0.002941862
200	0x3b2521bf	0.0025197116
201	0x3b414c7e	0.0029495056
202	0x3b4d2d34	0.003130746
203	0x3b4ffc58	0.0031736102
204	0x3b0bc31d	0.0021326013
205	0x3b354c19	0.0027663766
206	0x3b44bd88	0.0030020196
207	0x3b4095dc	0.0029386198
208	0x3bc99c43	0.006152661
209	0x3bdebca5	0.0067973905
210	0x3c054a0c	0.00813533
211	0x3bffea71	0.00780993
212	0x3bab8618	0.005234491
213	0x3bae28fc	0.0053149443
214	0x3bc7c2e4	0.006096231
215	0x3bde92d9	0.006792408
216	0x3b6b0811	0.0035862962
217	0x3b6696da	0.003518513
218	0x3b9d22b9	0.004795399
219	0x3bdea53d	0.0067946003
220	0x3aff72e8	0.0019489201
221	0x3b261045	0.0025339287
222	0x3bb00df9	0.0053727594
223	0x3bfcd63e	0.0077159693
224	0x02c2ce49	2.862414e-37
225	0x03ce58de	1.2127995e-36
226	0x03e4a5d1	1.3438705e-36
227	0x83388228	-5.422215e-37
228	0x02a70bb5	2.4545164e-37
229	0x04617e89	2.6506725e-36
230	0x046adf02	2.7608968e-36
231	0x81fe1a61	-9.3342716e-38
232	0x8352e77a	-6.1979175e-37
233	0x840b3766	-1.636481e-36
234	0x03e8999a	1.3671e-36
235	0x0204f5b7	9.768345e-38
236	0x035ba8c6	6.455206e-37
237	0x03d0f71a	1.2281873e-36
238	0x8499bc28	-3.614292e-36
239	0x03e1974d	1.3259048e-36
240	0x801b0e13	-2.484607e-39
241	0x80a96cf9	-1.5559291e-38
242	0x010cf92e	2.5892717e-38
243	0x00f54ce6	2.2527283e-38
244	0x805d45ae	-8.565698e-39
245	0x00acc26e	1.5865454e-38
246	0x0053dcfc	7.70162e-39
247	0x00a74a68	1.536322e-38
248	0x80196f22	-2.335754e-39
249	0x8043cf8c	-6.227432e-39
250	0x804a21ca	-6.807948e-39
251	0x012a2323	3.1249278e-38
252	0x00091ef8	8.37629e-40
253	0x0062b410	9.064473e-39
254	0x010429d3	2.4274578e-38
255	0x811af0f3	-2.8458205e-38

bias f4 [64]
0	0xbc01907f	-0.007907986
1	0x3c17f3ba	0.009274418
2	0x3a637e98	0.0008678227
3	0xbb370698	-0.0027927514
4	0x3daaeff1	0.083465464
5	0xbdc4b174	-0.09604159
6	0xbca538ab	-0.020168623
7	0x3c973d48	0.018461838
8	0xbd127239	-0.035753462
9	0x3d318bff	0.0433464
10	0xbd57184c	-0.052513406
11	0x3d1c0cd8	0.038098186
12	0xbc7ae165	-0.015312527
13	0x3c44f7b8	0.012021951
14	0xbdc8b543	-0.09800198
15	0x3dcbcbab	0.09950956
16	0x3ceb87e0	0.028751314
17	0xbc31a045	-0.010841434
18	0x3d101271	0.035173837
19	0xbccd3f27	-0.025054527
20	0x3e0c0182	0.1367245
21	0xbe07a807	-0.13247691
22	0xbd5b4c2a	-0.053539433
23	0x3d4b4055	0.0496219
24	0xbd7f171f	-0.06227791
25	0x3d97d7f6	0.07414238
26	0x3c5c6ad9	0.013453209
27	0xbb102583	-0.0021995015
28	0xbcc66cc2	-0.024221782
29	0x3cc39c64	0.023878284
30	0x3db854f7	0.09000581
31	0xbda68c16	-0.08132188
32	0xbce19f6c	-0.027541839
33	0x3ce12264	0.027482219
34	0x3d144f34	0.036208346
35	0xbcbfa45e	-0.023393806
36	0x3bcb35ae	0.0062014675
37	0xbc3289b5	-0.01089709
38	0x3d0fcfea	0.03511039
39	0xbd16c2ba	-0.0368068
40	0x3d40cb17	0.04706868
41	0xbd4006c3	-0.04688145
42	0x3d11c3de	0.035587184
43	0xbd0865dc	-0.033300266
44	0x3a52f0a2	0.00080467213
45	0xbb03ba1b	-0.0020099941
46	0x3ce7c0aa	0.028290112
47	0xbcb0ddfb	-0.021590224
48	0x3d858c49	0.06520898
49	0xbd5a78ff	-0.053338047
50	0xbc887bb6	-0.016660552
51	0x3c866ca2	0.016409222
52	0x3d905a5a	0.07048483
53	0xbd9f9e68	-0.077938855
54	0xbd9b3ac5	-0.07579569
55	0x3d9fa1dc	0.07794544
56	0xbafa43ac	-0.0019093654
57	0x3c4a5fe7	0.012351966
58	0xbc783c2c	-0.015151065
59	0x3b8027c9	0.0039109928
60	0x3cf27861	0.029598417
61	0xbd3db415	-0.046314318
62	0x399d72cb	0.000300309
63	0xb99d72ce	-0.0003003091

weight f4 [64]
0	0x3b794eb4	0.0038041295
1	0xb890682e	-6.88586e-05
2	0x2b76d711	8.769522e-13
3	0x361e852b	2.3621349e-06
4	0x3f8cb474	1.099257
5	0x3f903b9e	1.1268194
6	0x3f0f0988	0.5587392
7	0x3f0f44a9	0.5596414
8	0x3f95135e	1.1646535
9	0x3f639d7e	0.8891219
10	0xb10f1e06	-2.0826305e-09
11	0xb10e6bac	-2.0724924e-09
12	0x33c8d755	9.3523944e-08
13	0x3aa7549f	0.0012766308
14	0xb86852d9	-5.539027e-05
15	0x35030045	4.8801695e-07
16	0x3ed032e0	0.40663815
17	0x3f8ac9f0	1.0842876
18	0x3b311f03	0.002702654
19	0xb3b2dd14	-8.328985e-08
20	0x3f2ca332	0.67436516
21	0x3fca8b76	1.582381
22	0xad5e95c8	-1.2652497e-11
23	0x3abb21f5	0.0014277088
24	0x3f88ff20	1.0702858
25	0x3f8f3b48	1.1189966
26	0x3f8018a3	1.0007519
27	0x3f0e9cc0	0.5570793
28	0x3f697ca4	0.9120581
29	0x3d922b33	0.07137146
30	0x3f5e918b	0.8694083
31	0x3ec8f1b7	0.39246914
32	0x3dfc4bb2	0.12319125
33	0x3cd6ddc0	0.026228786
34	0x35410e7a	7.191917e-07
35	0x39bf1ae1	0.00036450385
36	0x3fae94e8	1.3639193
37	0x3f20e52b	0.6284968
38	0x3f6d0bf7	0.9259638
39	0x3f64a923	0.8932058
40	0x3f33fd5a	0.7030846
41	0x3f9ffdf5	1.2499377
42	0x3fc33c9a	1.5252869
43	0x3f18f3d3	0.59747046
44	0x3f92d9b6	1.147269
45	0x3f47c3cf	0.78033155
46	0x3f478b99	0.77947384
47	0x3f5a7935	0.853412
48	0x3f6e63e2	0.9312116
49	0x3f92ff53	1.1484169
50	0xb0c08bfe	-1.4009627e-09
51	0x38bd5913	9.028814e-05
52	0x32cb7ec8	2.3689964e-08
53	0xb8833d10	-6.2579405e-05
54	0xbaa90343	-0.0012894649
55	0x3ac68675	0.0015146272
56	0x3ef118d6	0.4708926
57	0x3f4a95ab	0.79134625
58	0x3bb71a64	0.005587863
59	0x377bfaa0	1.5019119e-05
60	0x38e04c42	0.000106953565
61	0x390309d4	0.00012496795
62	0x3497da63	2.828484e-07
63	0xb30838ec	-3.1716738e-08

bias f4 [64]
0	0x3c0c5489	0.008565077
1	0xb702fece	-7.80793e-06
2	0xacf90801	-7.0778943e-12
3	0xb4a3b1fb	-3.0490614e-07
4	0x3f4ab48a	0.7918173
5	0x3f496393	0.78667563
6	0x3ec20527	0.37894556
7	0x3ec31753	0.38103732
8	0x3f33b781	0.7020188
9	0x3f2204d4	0.6328862
10	0xb7a2b3ed	-1.939569e-05
11	0xb063c451	-8.28611e-10
12	0x3435fa57	1.6948012e-07
13	0x3b1908a3	0.0023351095
14	0x398dcbc2	0.00027045427
15	0xb55bff6f	-8.195556e-07
16	0x3e8c3223	0.27382
17	0x3f1c2765	0.6099761
18	0xbb006782	-0.0019592945
19	0xb3e5ba4e	-1.0697532e-07
20	0x3ef89009	0.4854739
21	0x3f71dc13	0.9447643
22	0xad388503	-1.0488724e-11
23	0xbb2e1634	-0.0026563527
24	0x3f3a9ac9	0.72892433
25	0x3f49da93	0.7884914
26	0x3f2701c7	0.65237087
27	0x3eb603a4	0.35549653
28	0x3ef214b6	0.47281426
29	0x3d5798d7	0.052635994
30	0x3f163edc	0.58689666
31	0x3e8c2b95	0.27377
32	0x3dc2e58d	0.095164396
33	0x3c89b1b3	0.016808366
34	0xb97aa2bf	-0.00023902486
35	0x38c55a27	9.410484e-05
36	0x3f2066fe	0.62657154
37	0x3ef2250e	0.47293895
38	0x3f04b061	0.5183163
39	0x3f13c583	0.57723254
40	0x3efac2f5	0.48976865
41	0x3f3650b7	0.7121691
42	0x3f5abf02	0.85447705
43	0x3ed87f38	0.4228456
44	0x3f41b37f	0.75664514
45	0x3f072877	0.5279612
46	0x3f00c5bc	0.5030172
47	0x3f10e440	0.5659828
48	0x3f1808c5	0.5938838
49	0x3f214bb8	0.6300616
50	0x2f1d8143	1.432499e-10
51	0xb8a2256e	-7.731734e-05
52	0x32320660	1.0362413e-08
53	0x380d6f52	3.3720695e-05
54	0xbb373d32	-0.002796006
55	0x3a6a7efb	0.0008945313
56	0x3e7f8de3	0.24956469
57	0x3f0946a2	0.536234
58	0x3b82601d	0.0039787428
59	0xb99f1848	-0.00030344934
60	0x39a0d621	0.00030677117
61	0x39b25580	0.00034014508
62	0xb5a25578	-1.2094815e-06
63	0xb3baeba1	-8.7041606e-08

weight f4 [10, 64]
0	0xbb6b18ba	-0.0035872892
1	0xb7a1e8a2	-1.9301024e-05
2	0x2c624038	3.215218e-12
3	0x35b73da6	1.3652505e-06
4	0xbeb2d376	-0.34926957
5	0x3e9d2c96	0.3069808
6	0xbe909b4b	-0.2824348
7	0x3e7b6677	0.24550806
8	0x3eec0364	0.46096337
9	0xbec6d83b	-0.38836846
10	0xb1e23d30	-6.584422e-09
11	0x301c925d	5.6960464e-10
12	0x35c76e22	1.4858708e-06
13	0xbb2d8c09	-0.0026481173
14	0x3a37bbb4	0.0007008866
15	0xb69a8dca	-4.606064e-06
16	0x3e2f45ab	0.1711642
17	0xbeed39b0	-0.46333075
18	0xbb43be00	-0.0029867887
19	0x33021a85	3.0292103e-08
20	0x3ea5506f	0.32287928
21	0xbf54fc11	-0.8319712
22	0x29e9845b	1.03702386e-13
23	0xba37b051	-0.0007007169
24	0x3ef67423	0.4813548
25	0xbf0404d7	-0.51569885
26	0x3eabab14	0.3352896
27	0xbe3c8e68	-0.18413699
28	0x3e8c6963	0.27424154
29	0xbce79c8e	-0.028272893
30	0xbeaaecf1	-0.33383897
31	0x3e1317bd	0.14364524
32	0x3dc5f1ab	0.09665235
33	0xbc96ff23	-0.018432206
34	0x37911fa4	1.730008e-05
35	0x3a34f7ba	0.0006903369
36	0x3f0f1a86	0.55899847
37	0xbe80a74d	-0.2512764
38	0xbe33d511	-0.17561747
39	0x3e3a8f74	0.18218786
40	0x3e8c3da5	0.2739078
41	0xbecff46b	-0.40616164
42	0x3e838a1c	0.25691307
43	0xbe06ef58	-0.1317724
44	0xbf0229e5	-0.50845176
45	0x3eac0ef0	0.33605146
46	0x3eacc987	0.33747503
47	0xbec58555	-0.38578287
48	0xbebcfd7f	-0.36912152
49	0x3ed03d69	0.40671852
50	0x310c0815	2.0377275e-09
51	0xb82acd94	-4.0722618e-05
52	0x31ba1fd0	5.416929e-09
53	0x39bc8147	0.00035954473
54	0xbb1f6599	-0.0024322032
55	0xb812a824	-3.4965706e-05
56	0xbe30995e	-0.17246005
57	0x3eae8a4e	0.34089893
58	0xbafbfa46	-0.0019224368
59	0x38eb0eda	0.000112084395
60	0x3a2033c0	0.0006111227
61	0x3a2405e4	0.0006256981
62	0xb1e1ecc1	-6.5752777e-09
63	0xafccf339	-3.7280204e-10
64	0xbadd9488	-0.0016905228
65	0xb7eaa76c	-2.7972936e-05
66	0xaae55e24	-4.0743895e-13
67	0xb49975f4	-2.8584293e-07
68	0xbf0ffe11	-0.5624705
69	0x3ed87bde	0.42282003
70	0x3c1274fd	0.008939025
71	0xbd400260	-0.046877265
72	0xbf1ae210	-0.60501194
73	0x3ef25db1	0.47337106
74	0x31de5448	6.470632e-09
75	0xaf9dcdfb	-2.8704492e-10
76	0xb412fdf3	-1.3689696e-07
77	0xba5be8ee	-0.0008388896
78	0xb89bf944	-7.437405e-05
79	0x33fce27b	1.1775861e-07
80	0xbe346839	-0.17617883
81	0x3ebcbe1e	0.36863798
82	0xba4eda5a	-0.0007890813
83	0x31ef7024	6.9685644e-09
84	0xbe620843	-0.22073464
85	0x3ece47ea	0.4028924
86	0x2abdc942	3.3712795e-13
87	0x39a971db	0.0003231902
88	0x3e941f08	0.28929925
89	0xbed79c7e	-0.42111582
90	0x3e30df18	0.17272604
91	0xbe232538	-0.15932167
92	0xbf01af0b	-0.5065772
93	0x3d35c05f	0.044372912
94	0x3e531d07	0.20616542
95	0xbe25f99f	-0.16208504
96	0xbd11512b	-0.0354778
97	0x3c335607	0.0109458035
98	0xb5112955	-5.4076855e-07
99	0xb928815c	-0.00016069919
100	0x3ed25a26	0.41084403
101	0xbe6f1828	-0.23349059
102	0x3ebe0b1c	0.3711785
103	0xbecd0ddd	-0.4004964
104	0x3e23edb5	0.16008647
105	0xbec6601f	-0.3874521
106	0x3f11dcb6	0.56977403
107	0xbe87e477	-0.26541492
108	0xbeecdbb8	-0.46261382
109	0x3e850c7d	0.2598609
110	0xbeb0a064	-0.34497368
111	0x3e9d4b1a	0.3072136
112	0x3e7e88a7	0.24856816
113	0xbec46db3	-0.38364944
114	0xafffc423	-4.6523593e-10
115	0xb8cc92d6	-9.754828e-05
116	0xb22aebd0	-9.94892e-09
117	0xb81075ca	-3.4441975e-05
118	0xba458cbf	-0.00075359264
119	0xb9fac7b7	-0.00047832515
120	0x3e7f8764	0.24953991
121	0xbed244ab	-0.41068015
122	0xba15eadc	-0.00057188957
123	0x388bad8f	6.660364e-05
124	0xb868b846	-5.548473e-05
125	0xb8b173f6	-8.461617e-05
126	0x3004de80	4.833751e-10
127	0xaed3e8a2	-9.636493e-11
128	0x3ba3aa0e	0.0049946373
129	0x3741f3ea	1.1560487e-05
130	0xac041a70	-1.8773004e-12
131	0x35d67f36	1.5981266e-06
132	0xbecadee4	-0.39623177
133	0x3eb962dd	0.3620824
134	0x3e84bff6	0.25927705
135	0xbe83f67b	-0.25773987
136	0x3ebc6743	0.36797532
137	0xbe8fa93b	-0.280588
138	0xb1c31737	-5.677886e-09
139	0x309d643f	1.1451745e-09
140	0x34fff2ce	4.7674115e-07
141	0x3b4ce182	0.0031262343
142	0x3a0f8d95	0.00054761145
143	0x342adba3	1.5912387e-07
144	0x3e389fda	0.18029729
145	0xbec2a4cb	-0.38016352
146	0xbab92d5c	-0.0014127898
147	0x33541383	4.9377842e-08
148	0xbe959f8b	-0.29223284
149	0x3f266d3a	0.65010417
150	0x2ce41c25	6.4832744e-12
151	0x39be9c81	0.00036356229
152	0x3f02f1d3	0.51150244
153	0xbf0f1e22	-0.55905354
154	0xbee9243a	-0.4553545
155	0x3e97ef23	0.29674634
156	0x3e9142ed	0.28371373
157	0xbc7955fc	-0.015218254
158	0xbe9d190a	-0.30683166
159	0x3e2981a2	0.16553357
160	0xbbbfc605	-0.005852463
161	0x3b6605b8	0.0035098623
162	0x37c8c77e	2.3934754e-05
163	0x3924fc83	0.00015734327
164	0xbef08194	-0.4697386
165	0x3e87be6a	0.26512462
166	0xbeab61fe	-0.334732
167	0x3eca16fe	0.39470667
168	0x3e60b1ea	0.21942869
169	0xbe94d597	-0.29069206
170	0xbf1b875b	-0.6075341
171	0x3e802d05	0.25034347
172	0x3f0dad73	0.5534279
173	0xbebe8f8f	-0.37218902
174	0xbe8f3ed8	-0.27977633
175	0x3eae94f6	0.34098023
176	0xbe7a42bd	-0.24439521
177	0x3ea27b76	0.31734818
178	0x302add61	6.216024e-10
179	0xb954a1de	-0.00020278196
180	0x31f601d1	7.159749e-09
181	0x340a035b	1.2853472e-07
182	0x39c7f3d1	0.00038137895
183	0x3a21c3f2	0.0006170861
184	0x3e83e365	0.25759426
185	0xbeba2976	-0.36359757
186	0x3b223bd8	0.0024754908
187	0xb921e1e9	-0.00015438315
188	0x3a02eaa8	0.0004994073
189	0x39888337	0.00026037704
190	0x318c1a7d	4.0775476e-09
191	0x311e2b0a	2.301649e-09
192	0xbbdb8095	-0.006698678
193	0xb79ad575	-1.845763e-05
194	0x2b9d6d21	1.118581e-12
195	0x339167b6	6.7709536e-08
196	0x3ee662f6	0.44997376
197	0xbf03b2de	-0.51444805
198	0x3e1936c5	0.14962299
199	0xbe39399f	-0.18088387
200	0x3eb45806	0.35223407
201	0xbeb63938	-0.3559053
202	0xb055229b	-7.7538126e-10
203	0x3001c12b	4.7204435e-10
204	0xb45adce1	-2.0383187e-07
205	0xbb7b9085	-0.00383857
206	0xba0293dd	-0.000498114
207	0xb554c283	-7.9259206e-07
208	0xbd97c1a8	-0.07409984
209	0x3e5a42e0	0.21314573
210	0xb917b45e	-0.00014467674
211	0x3367acae	5.394093e-08
212	0xbe765f8d	-0.24059887
213	0x3ef6fb92	0.48238808
214	0xab44b75b	-6.9887645e-13
215	0xb9f50378	-0.00046732626
216	0xbef4994e	-0.47773212
217	0x3ec4e768	0.384578
218	0xbee6de8d	-0.45091668
219	0x3e4e2726	0.20132121
220	0x3e86c4fe	0.26322168
221	0xbcc48233	-0.023987865
222	0xbec50fd1	-0.3848863
223	0x3e1b598c	0.15170878
224	0x3d142b16	0.036173902
225	0xbc1fead9	-0.009760582
226	0x37432a9e	1.1632828e-05
227	0xb9847219	-0.0002526201
228	0xbf0e5fb3	-0.55614775
229	0x3e76f58f	0.2411711
230	0x3f053764	0.52037644
231	0xbef7392d	-0.4828581
232	0x3de2d7be	0.11076306
233	0xbea5b5cc	-0.32365263
234	0x3f0ae502	0.5425569
235	0xbe88a616	-0.26689214
236	0xbeec9e5e	-0.46214575
237	0x3e8dd007	0.27697775
238	0xbe90d72b	-0.2828916
239	0x3e77cfac	0.24200314
240	0xbef0d075	-0.4703404
241	0x3ee4f99d	0.4472169
242	0x2f02cd66	1.1896403e-10
243	0xb86ca57a	-5.6420897e-05
244	0x30473707	7.2473977e-10
245	0xb7233428	-9.727701e-06
246	0x3845beec	4.714627e-05
247	0xba877d52	-0.0010337031
248	0x3e102e00	0.14080048
249	0xbea4354e	-0.32071918
250	0xbb349cd0	-0.0027559288
251	0xb9032ee6	-0.00012510605
252	0xb9db282a	-0.0004180086
253	0xb96c790c	-0.00022551807
254	0x30e351c1	1.653966e-09
255	0x2e76202a	5.596249e-11

bias f4 [10]
0	0x3bf2a0bd	0.0074044154
1	0xbd3ea0a9	-0.046539936
2	0x3d0ec223	0.034853112
3	0xbce6b1a0	-0.02816087
4	0xbd3b1d32	-0.04568214
5	0xbc6e95d6	-0.014562091
6	0x3d81b4e7	0.063333325
7	0xbcd5139d	-0.026010329
8	0xbb919abb	-0.004443494
9	0x3cb01715	0.021495381

weight f4 [64]
0	0xabc23fdb	-1.3802253e-12
1	0x3e838f55	0.2569529
2	0x3f0be6bb	0.5464894
3	0x3f08269a	0.531839
4	0xbae5a44a	-0.0017520275
5	0x395aaacc	0.00020853727
6	0x3ad2a297	0.0016070184
7	0xba648f37	-0.00087188504
8	0xbc1ec692	-0.009690898
9	0xba5f9a11	-0.00085297326
10	0x3f1385ef	0.5762624
11	0x3f1d6ffb	0.61498994
12	0xb7a3ab79	-1.9510962e-05
13	0x3ef45cad	0.47726956
14	0x3f113759	0.5672508
15	0x399476ef	0.00028317372
16	0x3f1694b5	0.5882066
17	0xbb00d93d	-0.0019660734
18	0x3f236b51	0.63835627
19	0x3ee8c98a	0.45466262
20	0x3e7ef048	0.24896348
21	0xbb7293d9	-0.0037014394
22	0x3ae1373a	0.0017182596
23	0x3ed4eb61	0.4158583
24	0xb8d228e6	-0.00010021198
25	0xb9d4a8ce	-0.0004056156
26	0xba8d879c	-0.0010797861
27	0x3e8fdb36	0.28096932
28	0xb7f535a3	-2.9231252e-05
29	0xbbe00d85	-0.006837549
30	0xb97c27cf	-0.00024047423
31	0x3c03ddb5	0.008048465
32	0x38bb17d8	8.921296e-05
33	0xbc817756	-0.015803974
34	0x3f445ccd	0.767041
35	0x3f19d065	0.6008361
36	0xb8a72449	-7.969939e-05
37	0x3ec60a7a	0.38679868
38	0x3ed794fc	0.42105854
39	0xb7902bab	-1.7186472e-05
40	0xb7e41f9f	-2.7194443e-05
41	0x39c6f668	0.0003794909
42	0xb8d496e4	-0.00010137053
43	0x3f034c2b	0.512881
44	0x3a40a578	0.00073488755
45	0xb8a17674	-7.699142e-05
46	0xbb0422ba	-0.00201623
47	0xb6d57f29	-6.362698e-06
48	0xbc26649b	-0.010155822
49	0x3f0038b9	0.5008655
50	0x3e8c205e	0.27368444
51	0x3ef0d5a1	0.47037986
52	0x3f051aee	0.51994216
53	0x3e61db2b	0.22056262
54	0x3ec135da	0.37736398
55	0x3f29fdc9	0.6640287
56	0x3e994192	0.2993284
57	0x3bc18f01	0.00590694
58	0x3eeaf938	0.45893264
59	0x3f2e6894	0.68128324
60	0x3ee44f7b	0.4459189
61	0x3e98bf97	0.2983367
62	0xbb283726	-0.0025667637
63	0x3120c5c5	2.3395483e-09

bias f4 [64]
0	0xb4bc8481	-3.5114138e-07
1	0xbe88152b	-0.2657865
2	0xbe8f3f64	-0.2797805
3	0xbea6a4de	-0.3254766
4	0xbba7c50a	-0.0051199244
5	0xbb133957	-0.0022464597
6	0x3b927062	0.0044689635
7	0xbb48f3bc	-0.0030662855
8	0xbc90aadb	-0.017659595
9	0xbc203c01	-0.009779931
10	0xbe8f269f	-0.27959153
11	0xbe8bf366	-0.27334136
12	0xb8268298	-3.969911e-05
13	0xbebd7d52	-0.37009674
14	0xbed8f308	-0.42372918
15	0xbc03ca68	-0.008043863
16	0xbe9dd6bf	-0.308279
17	0xbc02238b	-0.007943044
18	0xbe1f07bd	-0.15530296
19	0xbea02786	-0.31280154
20	0xbecf4977	-0.40485737
21	0xbb9529c8	-0.0045521
22	0xbb5e2468	-0.0033896212
23	0xbe8b1956	-0.27167767
24	0xbb0bed17	-0.0021351033
25	0xbaa0ed8e	-0.0012277828
26	0xbb37d95f	-0.0028053147
27	0xbe9e14ba	-0.30875188
28	0xb9b5813e	-0.00034619303
29	0x3c52c60e	0.012864603
30	0xbabaa8ff	-0.0014241039
31	0x3c40926a	0.011753658
32	0xbac0d541	-0.0014711992
33	0xbb0654e5	-0.0020497378
34	0xbe2b049a	-0.16700974
35	0xbe83ecd8	-0.25766635
36	0xba873bd3	-0.0010317512
37	0xbeee1bae	-0.46505493
38	0xbe8cd218	-0.2750404
39	0xb9080ca0	-0.00012974674
40	0xb96846ac	-0.00022151571
41	0xba7e37cb	-0.0009697645
42	0xbb93d6ae	-0.004511676
43	0xbec89f1f	-0.391839
44	0xbbcf6b7f	-0.006329953
45	0xba0460da	-0.00050498324
46	0xbbc4ab14	-0.0060018394
47	0xb8ad9502	-8.277038e-05
48	0x3b98c60f	0.0046622823
49	0xbe2c7686	-0.16842088
50	0xbe573852	-0.21017578
51	0xbee4b8d2	-0.44672257
52	0xbe3b349a	-0.18281785
53	0xbe62ecec	-0.22160691
54	0xbe041fe4	-0.1290279
55	0xbeb966d1	-0.36211255
56	0xbe3b4ae7	-0.18290292
57	0xbc029b8a	-0.007971654
58	0xbd8712ea	-0.065954044
59	0xbea51444	-0.32242024
60	0xbe977833	-0.29583892
61	0xbe975f60	-0.29564953
62	0xba89f285	-0.0010524547
63	0xb2bfb486	-2.2317419e-08
